model_MobileNetV2/tflite/yolo_himax.tflite (tflite, 570568 bytes, 84 tensors)

model/conv2d/Conv2D i1 [8, 3, 3, 1]
0	0xf4	-12
1	0xe8	-24
2	0x26	38
3	0xec	-20
4	0xc3	-61
5	0x74	116
6	0x02	2
7	0xcf	-49
8	0x7f	127
9	0xd3	-45
10	0x2a	42
11	0x02	2
12	0x81	-127
13	0x5c	92
14	0x14	20
15	0xc9	-55
16	0x3e	62
17	0x08	8
18	0xfc	-4
19	0xe1	-31
20	0x02	2
21	0x11	17
22	0x81	-127
23	0xfc	-4
24	0x17	23
25	0x81	-127
26	0xe2	-30
27	0xf9	-7
28	0x30	48
29	0xff	-1
30	0xfb	-5
31	0x78	120
32	0xfc	-4
33	0xe0	-32
34	0x7f	127
35	0x28	40
36	0xf0	-16
37	0x81	-127
38	0xed	-19
39	0xed	-19
40	0x93	-109
41	0xdb	-37
42	0xfe	-2
43	0x8a	-118
44	0x01	1
45	0x07	7
46	0xd1	-47
47	0x06	6
48	0xf9	-7
49	0x81	-127
50	0xf3	-13
51	0xf9	-7
52	0x12	18
53	0xfa	-6
54	0xfd	-3
55	0x24	36
56	0xd9	-39
57	0x01	1
58	0x54	84
59	0x81	-127
60	0x02	2
61	0x34	52
62	0x8b	-117
63	0x97	-105
64	0x2b	43
65	0x00	0
66	0x81	-127
67	0x34	52
68	0x0b	11
69	0xf7	-9
70	0x04	4
71	0x09	9

model/conv2d_1/Conv2D i1 [8, 1, 1, 8]
0	0xf7	-9
1	0xf6	-10
2	0x7b	123
3	0x8e	-114
4	0x7f	127
5	0x66	102
6	0x34	52
7	0x0e	14
8	0x61	97
9	0xe2	-30
10	0x0a	10
11	0x7f	127
12	0x21	33
13	0xfa	-6
14	0xe0	-32
15	0xef	-17
16	0xbf	-65
17	0xfe	-2
18	0xd8	-40
19	0x4a	74
20	0x0f	15
21	0x03	3
22	0x7f	127
23	0x06	6
24	0xff	-1
25	0x04	4
26	0x81	-127
27	0x6d	109
28	0x91	-111
29	0xad	-83
30	0xe7	-25
31	0xdf	-33
32	0x45	69
33	0x8e	-114
34	0x3c	60
35	0xcc	-52
36	0x0a	10
37	0x15	21
38	0x81	-127
39	0xcc	-52
40	0x2d	45
41	0x81	-127
42	0xa0	-96
43	0x2c	44
44	0x05	5
45	0x36	54
46	0x8a	-118
47	0x93	-109
48	0x48	72
49	0x0f	15
50	0x4f	79
51	0xb8	-72
52	0x1b	27
53	0xfd	-3
54	0x81	-127
55	0xfb	-5
56	0xfb	-5
57	0x8c	-116
58	0x15	21
59	0xfe	-2
60	0x37	55
61	0xee	-18
62	0x2c	44
63	0x81	-127

model/conv2d_2/Conv2D i1 [4, 1, 1, 8]
0	0x39	57
1	0x00	0
2	0xa1	-95
3	0x49	73
4	0x81	-127
5	0x00	0
6	0x8f	-113
7	0xf2	-14
8	0x7f	127
9	0x00	0
10	0x4a	74
11	0xf6	-10
12	0xc3	-61
13	0x00	0
14	0x36	54
15	0xb8	-72
16	0x7f	127
17	0x00	0
18	0xe5	-27
19	0xc2	-62
20	0x1a	26
21	0x00	0
22	0xe6	-26
23	0x30	48
24	0xdc	-36
25	0x00	0
26	0xe3	-29
27	0xb0	-80
28	0x81	-127
29	0x00	0
30	0xcd	-51
31	0xaf	-81

model/conv2d_3/Conv2D i1 [8, 1, 1, 4]
0	0x25	37
1	0x81	-127
2	0x44	68
3	0xfe	-2
4	0x81	-127
5	0xcb	-53
6	0xe5	-27
7	0x12	18
8	0x43	67
9	0x54	84
10	0x6b	107
11	0x7f	127
12	0xed	-19
13	0xd0	-48
14	0x81	-127
15	0x22	34
16	0x7f	127
17	0x10	16
18	0x1b	27
19	0x51	81
20	0xef	-17
21	0x49	73
22	0x7f	127
23	0x49	73
24	0x4c	76
25	0x5d	93
26	0x81	-127
27	0x17	23
28	0xf7	-9
29	0xaf	-81
30	0x7f	127
31	0x07	7

model/conv2d_4/Conv2D i1 [4, 1, 1, 8]
0	0xaa	-86
1	0x77	119
2	0x81	-127
3	0x82	-126
4	0x27	39
5	0x5b	91
6	0xaa	-86
7	0x06	6
8	0xe2	-30
9	0x3a	58
10	0xc1	-63
11	0xa8	-88
12	0x73	115
13	0x7f	127
14	0xb3	-77
15	0x43	67
16	0x81	-127
17	0x0d	13
18	0xfb	-5
19	0xd7	-41
20	0x1f	31
21	0x2b	43
22	0x3b	59
23	0x6e	110
24	0xdc	-36
25	0xe3	-29
26	0x8f	-113
27	0x30	48
28	0x7f	127
29	0xc7	-57
30	0x75	117
31	0xea	-22

model/conv2d_5/Conv2D i1 [24, 1, 1, 4]
0	0x01	1
1	0x7f	127
2	0xc1	-63
3	0x25	37
4	0x19	25
5	0x41	65
6	0x7f	127
7	0xea	-22
8	0x7f	127
9	0x19	25
10	0x3d	61
11	0xa1	-95
12	0x81	-127
13	0x25	37
14	0xfe	-2
15	0x50	80
16	0x48	72
17	0x7f	127
18	0x01	1
19	0x23	35
20	0xf7	-9
21	0x7f	127
22	0xf3	-13
23	0x08	8
24	0x7f	127
25	0x2c	44
26	0x0f	15
27	0x4e	78
28	0x81	-127
29	0xdb	-37
30	0xa9	-87
31	0x68	104
32	0x08	8
33	0x34	52
34	0x7f	127
35	0xec	-20
36	0x7f	127
37	0xed	-19
38	0x32	50
39	0x6c	108
40	0xda	-38
41	0xb3	-77
42	0x81	-127
43	0x16	22
44	0x54	84
45	0x7f	127
46	0xaa	-86
47	0x87	-121
48	0x09	9
49	0x33	51
50	0x7f	127
51	0xed	-19
52	0x81	-127
53	0x97	-105
54	0xe3	-29
55	0x82	-126
56	0x58	88
57	0x58	88
58	0x7f	127
59	0x3e	62
60	0xbd	-67
61	0xc9	-55
62	0x63	99
63	0x7f	127
64	0xf9	-7
65	0xcf	-49
66	0x81	-127
67	0x13	19
68	0x90	-112
69	0x7f	127
70	0xb6	-74
71	0xd6	-42
72	0xcf	-49
73	0xf5	-11
74	0x7f	127
75	0x40	64
76	0x5f	95
77	0x7f	127
78	0x74	116
79	0x33	51
80	0x15	21
81	0x3f	63
82	0x7f	127
83	0xd3	-45
84	0xa9	-87
85	0x7f	127
86	0xf7	-9
87	0xbb	-69
88	0xce	-50
89	0x81	-127
90	0x5b	91
91	0xa9	-87
92	0xad	-83
93	0x7f	127
94	0xc6	-58
95	0xfd	-3

model/conv2d_6/Conv2D i1 [8, 1, 1, 24]
0	0xd9	-39
1	0x13	19
2	0x39	57
3	0xe2	-30
4	0x5c	92
5	0x7f	127
6	0xff	-1
7	0x30	48
8	0x4b	75
9	0x71	113
10	0xf7	-9
11	0x0d	13
12	0x33	51
13	0x7a	122
14	0xf3	-13
15	0xec	-20
16	0x43	67
17	0xe8	-24
18	0xf6	-10
19	0xe9	-23
20	0xcd	-51
21	0x6b	107
22	0x04	4
23	0xee	-18
24	0xb0	-80
25	0xe8	-24
26	0xf4	-12
27	0xb7	-73
28	0xc1	-63
29	0xd3	-45
30	0x95	-107
31	0xe9	-23
32	0x28	40
33	0xd0	-48
34	0x14	20
35	0x68	104
36	0x18	24
37	0xd8	-40
38	0x28	40
39	0xd3	-45
40	0x3c	60
41	0x9c	-100
42	0x05	5
43	0xc7	-57
44	0xdf	-33
45	0xe0	-32
46	0x7f	127
47	0x34	52
48	0x16	22
49	0x88	-120
50	0x96	-106
51	0x7b	123
52	0x09	9
53	0x0c	12
54	0xc1	-63
55	0x9a	-102
56	0xb2	-78
57	0x05	5
58	0x1e	30
59	0x7f	127
60	0xae	-82
61	0x08	8
62	0x1b	27
63	0x7f	127
64	0xd0	-48
65	0x3d	61
66	0x34	52
67	0x28	40
68	0xd9	-39
69	0x0f	15
70	0x4a	74
71	0x2f	47
72	0x0a	10
73	0xaa	-86
74	0x28	40
75	0xe8	-24
76	0x07	7
77	0x0a	10
78	0xf3	-13
79	0x36	54
80	0x3c	60
81	0x0c	12
82	0x52	82
83	0x18	24
84	0x46	70
85	0x06	6
86	0x09	9
87	0x74	116
88	0x4c	76
89	0xf5	-11
90	0x7f	127
91	0xfc	-4
92	0x3a	58
93	0x0f	15
94	0x21	33
95	0xf1	-15
96	0x48	72
97	0xf3	-13
98	0x1a	26
99	0xf8	-8
100	0xd8	-40
101	0xc9	-55
102	0xcf	-49
103	0x0f	15
104	0x7f	127
105	0xd0	-48
106	0xcb	-53
107	0x1d	29
108	0x6e	110
109	0xca	-54
110	0x48	72
111	0xb8	-72
112	0x7d	125
113	0x6a	106
114	0xe3	-29
115	0x6d	109
116	0xe7	-25
117	0xc5	-59
118	0x1c	28
119	0x38	56
120	0xe4	-28
121	0x81	-127
122	0x06	6
123	0x02	2
124	0xfd	-3
125	0x01	1
126	0x36	54
127	0xfd	-3
128	0x13	19
129	0x01	1
130	0x1d	29
131	0x16	22
132	0x16	22
133	0x04	4
134	0xea	-22
135	0xef	-17
136	0x19	25
137	0xdc	-36
138	0x05	5
139	0xeb	-21
140	0xe5	-27
141	0xff	-1
142	0xcf	-49
143	0xea	-22
144	0x2e	46
145	0x0d	13
146	0x51	81
147	0xa2	-94
148	0xfd	-3
149	0xe6	-26
150	0x28	40
151	0x34	52
152	0xa8	-88
153	0xeb	-21
154	0x1f	31
155	0x22	34
156	0xa6	-90
157	0xea	-22
158	0x63	99
159	0xb4	-76
160	0x81	-127
161	0x43	67
162	0x10	16
163	0x79	121
164	0x24	36
165	0xe7	-25
166	0xe0	-32
167	0x11	17
168	0xd5	-43
169	0x7f	127
170	0xe3	-29
171	0x4e	78
172	0x00	0
173	0x0a	10
174	0x7e	126
175	0xd6	-42
176	0x1c	28
177	0x09	9
178	0xb9	-71
179	0x62	98
180	0x20	32
181	0x0e	14
182	0xe5	-27
183	0x63	99
184	0x35	53
185	0xd1	-47
186	0x4f	79
187	0xe2	-30
188	0xc1	-63
189	0x09	9
190	0xad	-83
191	0xdc	-36

model/conv2d_7/Conv2D i1 [32, 1, 1, 8]
0	0x7f	127
1	0xbb	-69
2	0x8f	-113
3	0x72	114
4	0x2e	46
5	0x50	80
6	0xad	-83
7	0x40	64
8	0x38	56
9	0xbf	-65
10	0x81	-127
11	0xed	-19
12	0x92	-110
13	0x36	54
14	0xdf	-33
15	0xf7	-9
16	0x58	88
17	0x02	2
18	0x0b	11
19	0xbd	-67
20	0x81	-127
21	0xf6	-10
22	0x19	25
23	0x03	3
24	0xf0	-16
25	0xfe	-2
26	0xf8	-8
27	0xef	-17
28	0xfd	-3
29	0x81	-127
30	0x0f	15
31	0x27	39
32	0xfe	-2
33	0x16	22
34	0xf2	-14
35	0x7f	127
36	0xeb	-21
37	0xa9	-87
38	0x10	16
39	0x1e	30
40	0x0b	11
41	0xf1	-15
42	0xcc	-52
43	0x11	17
44	0x01	1
45	0x81	-127
46	0x1e	30
47	0x45	69
48	0x29	41
49	0xba	-70
50	0x0f	15
51	0x66	102
52	0x5f	95
53	0x7f	127
54	0x59	89
55	0x01	1
56	0x24	36
57	0x01	1
58	0xb1	-79
59	0x5b	91
60	0x7f	127
61	0x37	55
62	0xa5	-91
63	0x44	68
64	0x03	3
65	0x20	32
66	0x58	88
67	0x1c	28
68	0x44	68
69	0x81	-127
70	0x9c	-100
71	0x92	-110
72	0x24	36
73	0x2e	46
74	0x3f	63
75	0xff	-1
76	0xec	-20
77	0x19	25
78	0xd3	-45
79	0x7f	127
80	0x51	81
81	0x10	16
82	0xc7	-57
83	0xeb	-21
84	0x44	68
85	0x82	-126
86	0x34	52
87	0x7f	127
88	0x12	18
89	0x04	4
90	0x56	86
91	0x61	97
92	0x4f	79
93	0x51	81
94	0xbd	-67
95	0x7f	127
96	0x81	-127
97	0x07	7
98	0x23	35
99	0xa8	-88
100	0xf6	-10
101	0xd2	-46
102	0x1c	28
103	0xc8	-56
104	0xf8	-8
105	0x21	33
106	0xef	-17
107	0xf0	-16
108	0xfa	-6
109	0x81	-127
110	0x22	34
111	0x60	96
112	0x57	87
113	0xb6	-74
114	0x3b	59
115	0x8e	-114
116	0x7f	127
117	0xe7	-25
118	0x7e	126
119	0xe5	-27
120	0x1a	26
121	0xe7	-25
122	0x53	83
123	0xef	-17
124	0x53	83
125	0x28	40
126	0x65	101
127	0x81	-127
128	0xf4	-12
129	0x81	-127
130	0x24	36
131	0x24	36
132	0x22	34
133	0x9c	-100
134	0x4a	74
135	0xd2	-46
136	0x00	0
137	0x7f	127
138	0xff	-1
139	0x37	55
140	0xb2	-78
141	0xea	-22
142	0x4d	77
143	0x21	33
144	0xcf	-49
145	0x8d	-115
146	0xca	-54
147	0x35	53
148	0xf0	-16
149	0xed	-19
150	0x81	-127
151	0xf2	-14
152	0x04	4
153	0xf6	-10
154	0x7f	127
155	0x50	80
156	0xce	-50
157	0xcb	-53
158	0xc6	-58
159	0x18	24
160	0x2f	47
161	0x81	-127
162	0x21	33
163	0xf8	-8
164	0x7d	125
165	0x8c	-116
166	0xfd	-3
167	0x42	66
168	0x1c	28
169	0x0d	13
170	0xff	-1
171	0x3a	58
172	0x03	3
173	0x03	3
174	0x23	35
175	0x81	-127
176	0x47	71
177	0x7f	127
178	0xcf	-49
179	0x04	4
180	0xdb	-37
181	0xc7	-57
182	0xe2	-30
183	0xf4	-12
184	0x81	-127
185	0x1c	28
186	0xe6	-26
187	0xcf	-49
188	0x14	20
189	0x29	41
190	0xff	-1
191	0x2b	43
192	0x81	-127
193	0x28	40
194	0xf3	-13
195	0xc0	-64
196	0xfa	-6
197	0x05	5
198	0x09	9
199	0xf6	-10
200	0x36	54
201	0x26	38
202	0x17	23
203	0x1f	31
204	0x03	3
205	0x81	-127
206	0x04	4
207	0xa5	-91
208	0x34	52
209	0x18	24
210	0x2f	47
211	0x09	9
212	0x23	35
213	0x7f	127
214	0x07	7
215	0xd2	-46
216	0x33	51
217	0x15	21
218	0xf6	-10
219	0x7f	127
220	0x10	16
221	0xd7	-41
222	0x2e	46
223	0x2c	44
224	0xa9	-87
225	0x10	16
226	0xc0	-64
227	0x3f	63
228	0x96	-106
229	0x79	121
230	0x81	-127
231	0xfa	-6
232	0xb1	-79
233	0xd8	-40
234	0x81	-127
235	0xa4	-92
236	0x26	38
237	0x03	3
238	0xc9	-55
239	0x21	33
240	0x10	16
241	0x9c	-100
242	0x40	64
243	0x7f	127
244	0x31	49
245	0x58	88
246	0x03	3
247	0x87	-121
248	0xba	-70
249	0xf3	-13
250	0xea	-22
251	0xbc	-68
252	0xe4	-28
253	0x7f	127
254	0xdd	-35
255	0xe2	-30

model/conv2d_8/Conv2D i1 [8, 1, 1, 32]
0	0xa5	-91
1	0xe1	-31
2	0x72	114
3	0x1a	26
4	0xf3	-13
5	0x20	32
6	0xdb	-37
7	0x65	101
8	0x1e	30
9	0xfc	-4
10	0xe5	-27
11	0x0b	11
12	0xbe	-66
13	0x1e	30
14	0x2a	42
15	0xf7	-9
16	0xe4	-28
17	0xbf	-65
18	0xdc	-36
19	0x2b	43
20	0xf4	-12
21	0x1c	28
22	0xcb	-53
23	0xd2	-46
24	0x7f	127
25	0xfc	-4
26	0xef	-17
27	0xbc	-68
28	0x1f	31
29	0xd4	-44
30	0xc3	-61
31	0xd8	-40
32	0x4b	75
33	0x30	48
34	0xd3	-45
35	0x08	8
36	0xd3	-45
37	0x21	33
38	0x03	3
39	0xc0	-64
40	0xc4	-60
41	0x1c	28
42	0x86	-122
43	0xfd	-3
44	0x7b	123
45	0xd2	-46
46	0xf5	-11
47	0x59	89
48	0x3b	59
49	0x45	69
50	0x95	-107
51	0xb1	-79
52	0xe1	-31
53	0xd6	-42
54	0x8e	-114
55	0x48	72
56	0x81	-127
57	0x9f	-97
58	0x51	81
59	0xda	-38
60	0x4b	75
61	0x0d	13
62	0x38	56
63	0x8f	-113
64	0x3a	58
65	0x81	-127
66	0x0b	11
67	0xe7	-25
68	0xe2	-30
69	0xc0	-64
70	0x38	56
71	0x4c	76
72	0xd7	-41
73	0xda	-38
74	0x2e	46
75	0x9e	-98
76	0x99	-103
77	0xf5	-11
78	0xe1	-31
79	0xfc	-4
80	0x31	49
81	0xfe	-2
82	0x25	37
83	0xcb	-53
84	0x52	82
85	0xc3	-61
86	0x24	36
87	0xdb	-37
88	0x32	50
89	0xce	-50
90	0xeb	-21
91	0x16	22
92	0xf3	-13
93	0xf3	-13
94	0xed	-19
95	0x96	-106
96	0x81	-127
97	0xcb	-53
98	0x06	6
99	0x44	68
100	0xde	-34
101	0x5f	95
102	0xb4	-76
103	0xa6	-90
104	0x3a	58
105	0xc2	-62
106	0x12	18
107	0xf1	-15
108	0xf2	-14
109	0x18	24
110	0x00	0
111	0xfe	-2
112	0xca	-54
113	0xdf	-33
114	0x07	7
115	0x27	39
116	0xd7	-41
117	0x0d	13
118	0xde	-34
119	0x44	68
120	0x06	6
121	0x24	36
122	0x3a	58
123	0xd6	-42
124	0xe7	-25
125	0xd6	-42
126	0x00	0
127	0xc9	-55
128	0xef	-17
129	0xf6	-10
130	0xd8	-40
131	0x22	34
132	0x3b	59
133	0x17	23
134	0x67	103
135	0x93	-109
136	0x77	119
137	0xf8	-8
138	0x1d	29
139	0xca	-54
140	0x20	32
141	0xd6	-42
142	0x01	1
143	0x01	1
144	0xfe	-2
145	0xfb	-5
146	0x0a	10
147	0x2b	43
148	0x7f	127
149	0xbc	-68
150	0x45	69
151	0xfc	-4
152	0xf5	-11
153	0x5c	92
154	0xac	-84
155	0x2b	43
156	0x37	55
157	0xc2	-62
158	0xf2	-14
159	0x1f	31
160	0x11	17
161	0x58	88
162	0xfe	-2
163	0x16	22
164	0x2b	43
165	0xfa	-6
166	0x22	34
167	0xf2	-14
168	0x0b	11
169	0x2b	43
170	0xda	-38
171	0xec	-20
172	0x2c	44
173	0x00	0
174	0x81	-127
175	0x69	105
176	0x5a	90
177	0x3e	62
178	0xfe	-2
179	0xd3	-45
180	0x17	23
181	0xfb	-5
182	0x14	20
183	0x02	2
184	0xbc	-68
185	0x08	8
186	0x45	69
187	0x2c	44
188	0xb4	-76
189	0x28	40
190	0xdd	-35
191	0x2a	42
192	0xca	-54
193	0xea	-22
194	0xf2	-14
195	0xf1	-15
196	0xd4	-44
197	0x10	16
198	0xac	-84
199	0x0e	14
200	0xea	-22
201	0xce	-50
202	0x31	49
203	0x78	120
204	0xa4	-92
205	0x7f	127
206	0x1f	31
207	0x30	48
208	0xc5	-59
209	0x0e	14
210	0x6a	106
211	0x0a	10
212	0x1e	30
213	0x59	89
214	0x1b	27
215	0x5f	95
216	0x12	18
217	0x98	-104
218	0xee	-18
219	0xec	-20
220	0x21	33
221	0x1b	27
222	0x6c	108
223	0x07	7
224	0xc5	-59
225	0x2c	44
226	0xef	-17
227	0x05	5
228	0x27	39
229	0x42	66
230	0xf5	-11
231	0xb9	-71
232	0x3d	61
233	0xd9	-39
234	0xf0	-16
235	0x9b	-101
236	0x54	84
237	0x2d	45
238	0x5d	93
239	0xc8	-56
240	0xd3	-45
241	0x1a	26
242	0xd6	-42
243	0x17	23
244	0xcf	-49
245	0x05	5
246	0xf6	-10
247	0x2d	45
248	0xfb	-5
249	0x23	35
250	0x29	41
251	0x0b	11
252	0x5c	92
253	0x7f	127
254	0x0e	14
255	0x46	70

model/conv2d_9/Conv2D i1 [32, 1, 1, 8]
0	0xae	-82
1	0x46	70
2	0xa2	-94
3	0x33	51
4	0x2e	46
5	0x7f	127
6	0xd4	-44
7	0x70	112
8	0x29	41
9	0x8f	-113
10	0x85	-123
11	0x0a	10
12	0x2f	47
13	0x7f	127
14	0xf4	-12
15	0x6e	110
16	0xb2	-78
17	0xf1	-15
18	0xb8	-72
19	0x7f	127
20	0x4a	74
21	0x23	35
22	0x22	34
23	0x40	64
24	0x81	-127
25	0x62	98
26	0x37	55
27	0xcc	-52
28	0xb4	-76
29	0x48	72
30	0x93	-109
31	0x01	1
32	0xc4	-60
33	0x40	64
34	0x81	-127
35	0x85	-123
36	0xd7	-41
37	0x58	88
38	0xbd	-67
39	0x0c	12
40	0x1a	26
41	0x28	40
42	0xfe	-2
43	0x24	36
44	0xd8	-40
45	0x81	-127
46	0xdc	-36
47	0xf0	-16
48	0x9d	-99
49	0x4f	79
50	0xdb	-37
51	0xab	-85
52	0xff	-1
53	0x7f	127
54	0x21	33
55	0x41	65
56	0x7f	127
57	0x40	64
58	0xe6	-26
59	0x55	85
60	0x0b	11
61	0xde	-34
62	0x47	71
63	0xaa	-86
64	0x81	-127
65	0x1c	28
66	0xdc	-36
67	0x1e	30
68	0x30	48
69	0xf4	-12
70	0x08	8
71	0x15	21
72	0x24	36
73	0x81	-127
74	0xf7	-9
75	0x13	19
76	0x27	39
77	0x9a	-102
78	0xe6	-26
79	0x22	34
80	0xb6	-74
81	0x64	100
82	0x81	-127
83	0x64	100
84	0x37	55
85	0x6f	111
86	0xbe	-66
87	0x4a	74
88	0xd0	-48
89	0x42	66
90	0x7e	126
91	0x20	32
92	0x36	54
93	0x19	25
94	0x26	38
95	0x81	-127
96	0xba	-70
97	0xb1	-79
98	0x08	8
99	0x1a	26
100	0xb0	-80
101	0x81	-127
102	0xeb	-21
103	0xd4	-44
104	0x81	-127
105	0x17	23
106	0xef	-17
107	0xe7	-25
108	0xb9	-71
109	0xf0	-16
110	0xf4	-12
111	0x1a	26
112	0x7f	127
113	0xdd	-35
114	0xc5	-59
115	0x16	22
116	0x37	55
117	0xe1	-31
118	0xd6	-42
119	0xb7	-73
120	0xfe	-2
121	0xd0	-48
122	0xe4	-28
123	0xe9	-23
124	0xea	-22
125	0x54	84
126	0x2b	43
127	0x7f	127
128	0x18	24
129	0x2f	47
130	0xef	-17
131	0xc8	-56
132	0x12	18
133	0x81	-127
134	0x18	24
135	0x30	48
136	0xfd	-3
137	0xdf	-33
138	0x79	121
139	0x3b	59
140	0x28	40
141	0x02	2
142	0xfe	-2
143	0x7f	127
144	0x1a	26
145	0xc7	-57
146	0xfa	-6
147	0x01	1
148	0x22	34
149	0x81	-127
150	0x20	32
151	0x38	56
152	0xd4	-44
153	0x7f	127
154	0x64	100
155	0x04	4
156	0x0d	13
157	0x82	-126
158	0x39	57
159	0xa4	-92
160	0x14	20
161	0x81	-127
162	0xd8	-40
163	0xf7	-9
164	0x12	18
165	0x3f	63
166	0x21	33
167	0x31	49
168	0xdd	-35
169	0x81	-127
170	0x24	36
171	0x63	99
172	0x2a	42
173	0xaa	-86
174	0xae	-82
175	0xf1	-15
176	0x38	56
177	0x26	38
178	0x28	40
179	0x8c	-116
180	0x7f	127
181	0x43	67
182	0x5c	92
183	0x63	99
184	0xe4	-28
185	0x10	16
186	0x63	99
187	0xb5	-75
188	0xf2	-14
189	0x81	-127
190	0x0a	10
191	0x5b	91
192	0x08	8
193	0xf5	-11
194	0x81	-127
195	0x4c	76
196	0x51	81
197	0xf4	-12
198	0x93	-109
199	0x16	22
200	0x3b	59
201	0x18	24
202	0x52	82
203	0x5c	92
204	0x47	71
205	0x7f	127
206	0x4d	77
207	0xee	-18
208	0xe7	-25
209	0xee	-18
210	0xe1	-31
211	0xd3	-45
212	0xdb	-37
213	0xa4	-92
214	0xe1	-31
215	0x7f	127
216	0xfa	-6
217	0x12	18
218	0x31	49
219	0xbb	-69
220	0xfa	-6
221	0x81	-127
222	0xea	-22
223	0xdd	-35
224	0x2e	46
225	0xed	-19
226	0x9a	-102
227	0xbe	-66
228	0x71	113
229	0x81	-127
230	0xd2	-46
231	0x97	-105
232	0x07	7
233	0x81	-127
234	0x04	4
235	0xf4	-12
236	0x38	56
237	0x01	1
238	0x0b	11
239	0xf7	-9
240	0xe7	-25
241	0x7a	122
242	0x0c	12
243	0x30	48
244	0x0d	13
245	0x81	-127
246	0xf5	-11
247	0x09	9
248	0xc4	-60
249	0xef	-17
250	0xe1	-31
251	0xc6	-58
252	0xe7	-25
253	0x7f	127
254	0xfa	-6
255	0x51	81

model/conv2d_10/Conv2D i1 [8, 1, 1, 32]
0	0x30	48
1	0xaa	-86
2	0xc3	-61
3	0x39	57
4	0x81	-127
5	0x18	24
6	0x26	38
7	0xbf	-65
8	0xc7	-57
9	0xef	-17
10	0xe7	-25
11	0xda	-38
12	0xb6	-74
13	0xfe	-2
14	0x98	-104
15	0xf6	-10
16	0xed	-19
17	0x04	4
18	0x16	22
19	0xd8	-40
20	0x5c	92
21	0x00	0
22	0x35	53
23	0xc6	-58
24	0x10	16
25	0x98	-104
26	0xda	-38
27	0x99	-103
28	0x1b	27
29	0x87	-121
30	0x39	57
31	0xa8	-88
32	0x36	54
33	0x6c	108
34	0xe4	-28
35	0x95	-107
36	0x1c	28
37	0xde	-34
38	0x96	-106
39	0x01	1
40	0x70	112
41	0x81	-127
42	0x1c	28
43	0x17	23
44	0x44	68
45	0x19	25
46	0xf3	-13
47	0x15	21
48	0xaa	-86
49	0xc8	-56
50	0xba	-70
51	0x76	118
52	0xbc	-68
53	0x84	-124
54	0xe0	-32
55	0xf5	-11
56	0x9b	-101
57	0x0a	10
58	0x38	56
59	0x56	86
60	0xb9	-71
61	0x2a	42
62	0xec	-20
63	0x53	83
64	0x2a	42
65	0xa6	-90
66	0xad	-83
67	0xad	-83
68	0x2b	43
69	0x53	83
70	0x3c	60
71	0xbc	-68
72	0xaf	-81
73	0xf7	-9
74	0x57	87
75	0x81	-127
76	0xeb	-21
77	0xe7	-25
78	0x2b	43
79	0xef	-17
80	0xa7	-89
81	0x09	9
82	0xf7	-9
83	0x49	73
84	0x12	18
85	0xce	-50
86	0x0d	13
87	0x73	115
88	0xd7	-41
89	0x2b	43
90	0xea	-22
91	0xc9	-55
92	0x39	57
93	0x06	6
94	0x3c	60
95	0xd0	-48
96	0xe9	-23
97	0xf8	-8
98	0xae	-82
99	0x20	32
100	0x96	-106
101	0xf0	-16
102	0x50	80
103	0xc1	-63
104	0xd5	-43
105	0x20	32
106	0xb7	-73
107	0x11	17
108	0xf7	-9
109	0x81	-127
110	0xcf	-49
111	0xc3	-61
112	0x27	39
113	0x26	38
114	0xf9	-7
115	0xe3	-29
116	0x04	4
117	0x3c	60
118	0x22	34
119	0xdf	-33
120	0x33	51
121	0x2d	45
122	0x21	33
123	0xec	-20
124	0x35	53
125	0xf6	-10
126	0xf0	-16
127	0x06	6
128	0xf2	-14
129	0x13	19
130	0xc9	-55
131	0x21	33
132	0x06	6
133	0x63	99
134	0x27	39
135	0xdb	-37
136	0xfe	-2
137	0x17	23
138	0xde	-34
139	0xeb	-21
140	0xc4	-60
141	0xe5	-27
142	0x05	5
143	0x1b	27
144	0xfd	-3
145	0xca	-54
146	0x55	85
147	0x48	72
148	0x14	20
149	0x32	50
150	0xe8	-24
151	0xc3	-61
152	0x14	20
153	0xbc	-68
154	0xc3	-61
155	0x24	36
156	0x09	9
157	0x19	25
158	0x7f	127
159	0x95	-107
160	0xe8	-24
161	0x23	35
162	0x36	54
163	0xfb	-5
164	0x4d	77
165	0xb8	-72
166	0xf0	-16
167	0x2e	46
168	0x5b	91
169	0xf4	-12
170	0xe2	-30
171	0xb4	-76
172	0xb8	-72
173	0x0e	14
174	0x58	88
175	0x5d	93
176	0x53	83
177	0x09	9
178	0xd2	-46
179	0xce	-50
180	0xd4	-44
181	0xf8	-8
182	0xf3	-13
183	0xca	-54
184	0xe9	-23
185	0x2a	42
186	0x07	7
187	0x7f	127
188	0x00	0
189	0x2f	47
190	0x16	22
191	0x4f	79
192	0x52	82
193	0xc3	-61
194	0xc5	-59
195	0x45	69
196	0xa3	-93
197	0x43	67
198	0xde	-34
199	0xd1	-47
200	0x9b	-101
201	0x17	23
202	0x4f	79
203	0x28	40
204	0x5b	91
205	0xc0	-64
206	0xf8	-8
207	0xb3	-77
208	0xe4	-28
209	0x35	53
210	0x7f	127
211	0xda	-38
212	0x46	70
213	0x14	20
214	0x68	104
215	0x2e	46
216	0x1f	31
217	0x62	98
218	0xd5	-43
219	0xa9	-87
220	0x07	7
221	0xb0	-80
222	0xf7	-9
223	0xbf	-65
224	0xa3	-93
225	0x1a	26
226	0x17	23
227	0x09	9
228	0x04	4
229	0xbf	-65
230	0x43	67
231	0xbb	-69
232	0x22	34
233	0x4e	78
234	0xf5	-11
235	0x6e	110
236	0x37	55
237	0x36	54
238	0x4e	78
239	0x08	8
240	0x30	48
241	0x53	83
242	0xa7	-89
243	0xaf	-81
244	0xea	-22
245	0x45	69
246	0x03	3
247	0x6e	110
248	0x35	53
249	0x0c	12
250	0x7f	127
251	0xda	-38
252	0x4a	74
253	0xfe	-2
254	0x9e	-98
255	0xfc	-4

model/conv2d_11/Conv2D i1 [32, 1, 1, 8]
0	0x2b	43
1	0x34	52
2	0x81	-127
3	0x55	85
4	0x5a	90
5	0x15	21
6	0x07	7
7	0xcb	-53
8	0x66	102
9	0x05	5
10	0x81	-127
11	0x22	34
12	0x15	21
13	0xbc	-68
14	0x2b	43
15	0xb6	-74
16	0x95	-107
17	0xfd	-3
18	0x63	99
19	0x81	-127
20	0xc8	-56
21	0x9a	-102
22	0x42	66
23	0xa5	-91
24	0x18	24
25	0xe8	-24
26	0x21	33
27	0x28	40
28	0x0c	12
29	0x7f	127
30	0xd6	-42
31	0xa8	-88
32	0x2e	46
33	0xb9	-71
34	0x7f	127
35	0x35	53
36	0x0d	13
37	0x86	-122
38	0x12	18
39	0xc9	-55
40	0x81	-127
41	0x29	41
42	0x21	33
43	0x1e	30
44	0x26	38
45	0xd3	-45
46	0x4a	74
47	0xf3	-13
48	0xfd	-3
49	0xbf	-65
50	0xd6	-42
51	0x3e	62
52	0x13	19
53	0x81	-127
54	0x1d	29
55	0x57	87
56	0xd5	-43
57	0x47	71
58	0x8b	-117
59	0x78	120
60	0x81	-127
61	0xba	-70
62	0x0f	15
63	0x78	120
64	0x07	7
65	0x07	7
66	0x81	-127
67	0x30	48
68	0x3e	62
69	0x50	80
70	0xb6	-74
71	0x40	64
72	0x81	-127
73	0x13	19
74	0xd1	-47
75	0xe9	-23
76	0xef	-17
77	0x57	87
78	0x36	54
79	0x59	89
80	0x45	69
81	0xff	-1
82	0xaf	-81
83	0x37	55
84	0xbc	-68
85	0x81	-127
86	0x29	41
87	0x59	89
88	0xa9	-87
89	0xca	-54
90	0x68	104
91	0x81	-127
92	0xc6	-58
93	0x93	-109
94	0x1b	27
95	0x8b	-117
96	0xf4	-12
97	0xef	-17
98	0xb9	-71
99	0x0f	15
100	0x12	18
101	0x81	-127
102	0x2f	47
103	0x7a	122
104	0x4b	75
105	0xbd	-67
106	0xfc	-4
107	0x2b	43
108	0x77	119
109	0x81	-127
110	0x3e	62
111	0x52	82
112	0x2f	47
113	0xef	-17
114	0x6b	107
115	0xf2	-14
116	0x40	64
117	0x81	-127
118	0x3d	61
119	0xcc	-52
120	0x16	22
121	0xfa	-6
122	0x62	98
123	0x7f	127
124	0xe9	-23
125	0xa7	-89
126	0x12	18
127	0xd8	-40
128	0xd4	-44
129	0xd3	-45
130	0xf6	-10
131	0x46	70
132	0xd6	-42
133	0x37	55
134	0x7f	127
135	0x1a	26
136	0x00	0
137	0xe2	-30
138	0xe6	-26
139	0x23	35
140	0x45	69
141	0xb3	-77
142	0x40	64
143	0x81	-127
144	0x81	-127
145	0xfa	-6
146	0xee	-18
147	0xfc	-4
148	0x47	71
149	0x48	72
150	0x2e	46
151	0xff	-1
152	0xaf	-81
153	0x06	6
154	0x75	117
155	0x13	19
156	0x7f	127
157	0xb0	-80
158	0x32	50
159	0xe4	-28
160	0xf6	-10
161	0xf5	-11
162	0xce	-50
163	0xcd	-51
164	0x1b	27
165	0x81	-127
166	0x12	18
167	0x67	103
168	0x10	16
169	0xea	-22
170	0xa4	-92
171	0x07	7
172	0x1b	27
173	0x81	-127
174	0x27	39
175	0x5d	93
176	0x56	86
177	0xde	-34
178	0x7f	127
179	0x6b	107
180	0x1f	31
181	0xed	-19
182	0x00	0
183	0x7f	127
184	0x54	84
185	0x1c	28
186	0x62	98
187	0xc7	-57
188	0x4e	78
189	0x81	-127
190	0x14	20
191	0xa6	-90
192	0x7f	127
193	0xf8	-8
194	0x57	87
195	0x05	5
196	0x0b	11
197	0x8a	-118
198	0x3b	59
199	0xb7	-73
200	0x7f	127
201	0xb2	-78
202	0xc8	-56
203	0x5e	94
204	0x2d	45
205	0x9f	-97
206	0x63	99
207	0x5e	94
208	0x5a	90
209	0x96	-106
210	0x8d	-115
211	0xb0	-80
212	0x44	68
213	0x57	87
214	0x7f	127
215	0xf2	-14
216	0xe0	-32
217	0xc9	-55
218	0x08	8
219	0x81	-127
220	0xf1	-15
221	0x3e	62
222	0xc5	-59
223	0x31	49
224	0x81	-127
225	0x12	18
226	0x02	2
227	0x28	40
228	0x64	100
229	0xfc	-4
230	0x20	32
231	0xf4	-12
232	0xf7	-9
233	0xd5	-43
234	0xe8	-24
235	0x40	64
236	0x40	64
237	0x81	-127
238	0xd0	-48
239	0xed	-19
240	0x15	21
241	0x14	20
242	0x7f	127
243	0x7b	123
244	0x2e	46
245	0xf4	-12
246	0xe7	-25
247	0x6e	110
248	0x7f	127
249	0xd5	-43
250	0xdc	-36
251	0x10	16
252	0x0b	11
253	0x82	-126
254	0x26	38
255	0x32	50

model/conv2d_12/Conv2D i1 [8, 1, 1, 32]
0	0x06	6
1	0xf7	-9
2	0x98	-104
3	0xd0	-48
4	0xde	-34
5	0x39	57
6	0xce	-50
7	0xc5	-59
8	0x1e	30
9	0xdb	-37
10	0x1c	28
11	0xf8	-8
12	0xf2	-14
13	0x0e	14
14	0xcc	-52
15	0xc3	-61
16	0x13	19
17	0x14	20
18	0x2f	47
19	0xcf	-49
20	0x81	-127
21	0xdf	-33
22	0x36	54
23	0x0e	14
24	0x3e	62
25	0x15	21
26	0x3a	58
27	0xec	-20
28	0x17	23
29	0xf6	-10
30	0xf5	-11
31	0xe4	-28
32	0xf5	-11
33	0x45	69
34	0x1c	28
35	0x00	0
36	0x1f	31
37	0x1b	27
38	0xe8	-24
39	0xbf	-65
40	0x81	-127
41	0xcd	-51
42	0x01	1
43	0xd0	-48
44	0xd9	-39
45	0x14	20
46	0x7f	127
47	0x0c	12
48	0xd8	-40
49	0xb0	-80
50	0x2b	43
51	0xfb	-5
52	0xca	-54
53	0xf6	-10
54	0xe4	-28
55	0xf0	-16
56	0x60	96
57	0x25	37
58	0x2a	42
59	0x28	40
60	0xfa	-6
61	0x0f	15
62	0x10	16
63	0x35	53
64	0xbc	-68
65	0x78	120
66	0xdd	-35
67	0xfd	-3
68	0xf0	-16
69	0xf1	-15
70	0x0f	15
71	0x24	36
72	0x26	38
73	0x0f	15
74	0xec	-20
75	0x0d	13
76	0x1f	31
77	0x09	9
78	0xf6	-10
79	0x0f	15
80	0xdb	-37
81	0xdc	-36
82	0xe1	-31
83	0xfc	-4
84	0x81	-127
85	0x2a	42
86	0xd6	-42
87	0xfe	-2
88	0xd4	-44
89	0xfc	-4
90	0x1d	29
91	0x01	1
92	0xe5	-27
93	0x19	25
94	0x31	49
95	0x0b	11
96	0xec	-20
97	0x48	72
98	0xab	-85
99	0xf4	-12
100	0xdd	-35
101	0x2c	44
102	0x1f	31
103	0x35	53
104	0x09	9
105	0xfa	-6
106	0x77	119
107	0x02	2
108	0x0b	11
109	0x0b	11
110	0x10	16
111	0x0f	15
112	0x30	48
113	0x07	7
114	0x15	21
115	0x1c	28
116	0x7f	127
117	0x24	36
118	0x70	112
119	0x16	22
120	0x28	40
121	0xfd	-3
122	0xf2	-14
123	0x4a	74
124	0xc2	-62
125	0x14	20
126	0xd1	-47
127	0x29	41
128	0xec	-20
129	0x4f	79
130	0x2f	47
131	0x09	9
132	0xd9	-39
133	0xe6	-26
134	0xe3	-29
135	0xf4	-12
136	0x2c	44
137	0x17	23
138	0x0e	14
139	0x0c	12
140	0x13	19
141	0x08	8
142	0xc3	-61
143	0xf3	-13
144	0x48	72
145	0xdb	-37
146	0xe0	-32
147	0x4c	76
148	0x1e	30
149	0x0d	13
150	0xa4	-92
151	0x10	16
152	0x7f	127
153	0x0c	12
154	0xfd	-3
155	0x11	17
156	0x3e	62
157	0x14	20
158	0x37	55
159	0xe9	-23
160	0x05	5
161	0xe7	-25
162	0x02	2
163	0x04	4
164	0x34	52
165	0xe3	-29
166	0x40	64
167	0xba	-70
168	0x5a	90
169	0x07	7
170	0xe1	-31
171	0x11	17
172	0xf0	-16
173	0x32	50
174	0x3c	60
175	0x2a	42
176	0x09	9
177	0xef	-17
178	0xa5	-91
179	0x35	53
180	0xe4	-28
181	0x0a	10
182	0x7f	127
183	0x37	55
184	0xdd	-35
185	0x31	49
186	0x24	36
187	0xa9	-87
188	0x34	52
189	0x79	121
190	0xeb	-21
191	0x3d	61
192	0xe9	-23
193	0xf2	-14
194	0xf3	-13
195	0x3b	59
196	0xf2	-14
197	0xf1	-15
198	0x04	4
199	0xfa	-6
200	0xf2	-14
201	0xe4	-28
202	0x4a	74
203	0xf8	-8
204	0x2b	43
205	0x3c	60
206	0xb8	-72
207	0xc8	-56
208	0x82	-126
209	0xe7	-25
210	0x22	34
211	0xe4	-28
212	0x7f	127
213	0x1f	31
214	0xde	-34
215	0xd1	-47
216	0xdb	-37
217	0x4f	79
218	0x37	55
219	0xc2	-62
220	0x2d	45
221	0x38	56
222	0x09	9
223	0xfc	-4
224	0x1c	28
225	0xc4	-60
226	0x0f	15
227	0x2f	47
228	0xdb	-37
229	0xcc	-52
230	0x1d	29
231	0x43	67
232	0xfa	-6
233	0x1b	27
234	0xcf	-49
235	0x1d	29
236	0x2e	46
237	0x02	2
238	0xb6	-74
239	0x16	22
240	0xb5	-75
241	0x09	9
242	0x1e	30
243	0x5c	92
244	0x81	-127
245	0x1a	26
246	0x67	103
247	0xf4	-12
248	0x51	81
249	0xf2	-14
250	0xd3	-45
251	0x1e	30
252	0x02	2
253	0x13	19
254	0xbb	-69
255	0xdf	-33

model/conv2d_13/Conv2D i1 [48, 1, 1, 8]
0	0xab	-85
1	0x32	50
2	0x14	20
3	0x81	-127
4	0x47	71
5	0x3b	59
6	0x35	53
7	0x5f	95
8	0x81	-127
9	0xd7	-41
10	0xc4	-60
11	0xe3	-29
12	0xf4	-12
13	0xe3	-29
14	0x2f	47
15	0xc7	-57
16	0xa4	-92
17	0x37	55
18	0xed	-19
19	0x7f	127
20	0x33	51
21	0xc6	-58
22	0xbc	-68
23	0x15	21
24	0xb4	-76
25	0x7f	127
26	0xd1	-47
27	0x17	23
28	0xfc	-4
29	0xd5	-43
30	0x20	32
31	0x30	48
32	0xfb	-5
33	0xe7	-25
34	0xe6	-26
35	0x91	-111
36	0x7f	127
37	0xd5	-43
38	0xaa	-86
39	0x42	66
40	0xc3	-61
41	0xec	-20
42	0x0a	10
43	0x64	100
44	0x7f	127
45	0xdd	-35
46	0xd7	-41
47	0x0e	14
48	0x21	33
49	0x7f	127
50	0x30	48
51	0xed	-19
52	0xde	-34
53	0x11	17
54	0xe9	-23
55	0x53	83
56	0x7f	127
57	0xa8	-88
58	0x7b	123
59	0xfc	-4
60	0xf7	-9
61	0xf5	-11
62	0xef	-17
63	0xb9	-71
64	0xd2	-46
65	0x44	68
66	0xf1	-15
67	0x7d	125
68	0x81	-127
69	0x58	88
70	0x3b	59
71	0x46	70
72	0x81	-127
73	0xe4	-28
74	0x87	-121
75	0x70	112
76	0xe6	-26
77	0xc9	-55
78	0x79	121
79	0x88	-120
80	0xd4	-44
81	0xe0	-32
82	0xeb	-21
83	0x7f	127
84	0x33	51
85	0x05	5
86	0x22	34
87	0x10	16
88	0xf9	-7
89	0x77	119
90	0xeb	-21
91	0x7f	127
92	0xc2	-62
93	0x17	23
94	0xe3	-29
95	0x50	80
96	0x7f	127
97	0xe1	-31
98	0x62	98
99	0x9c	-100
100	0x34	52
101	0x3e	62
102	0x16	22
103	0x22	34
104	0x32	50
105	0x25	37
106	0xe5	-27
107	0x81	-127
108	0xe2	-30
109	0x84	-124
110	0x96	-106
111	0xcf	-49
112	0xd9	-39
113	0xd4	-44
114	0xee	-18
115	0x90	-112
116	0xf8	-8
117	0x9c	-100
118	0x7f	127
119	0x73	115
120	0x48	72
121	0x14	20
122	0x32	50
123	0x18	24
124	0x15	21
125	0x7f	127
126	0xe4	-28
127	0xc4	-60
128	0x85	-123
129	0x89	-119
130	0xeb	-21
131	0x81	-127
132	0x25	37
133	0xe4	-28
134	0x41	65
135	0x1d	29
136	0xa3	-93
137	0x7f	127
138	0x0a	10
139	0x58	88
140	0xd5	-43
141	0x2c	44
142	0x2b	43
143	0xa1	-95
144	0x81	-127
145	0x46	70
146	0xc9	-55
147	0xbd	-67
148	0x10	16
149	0x2b	43
150	0xcd	-51
151	0xc9	-55
152	0xd6	-42
153	0x09	9
154	0xce	-50
155	0x60	96
156	0x0b	11
157	0x68	104
158	0x7f	127
159	0x06	6
160	0xb2	-78
161	0xf6	-10
162	0x44	68
163	0xa2	-94
164	0x34	52
165	0x0c	12
166	0x11	17
167	0x81	-127
168	0xfb	-5
169	0x48	72
170	0x3e	62
171	0x53	83
172	0xd7	-41
173	0x24	36
174	0x7f	127
175	0x17	23
176	0x27	39
177	0x81	-127
178	0x48	72
179	0xfa	-6
180	0xe1	-31
181	0x37	55
182	0x20	32
183	0xc5	-59
184	0xfe	-2
185	0xf2	-14
186	0xd1	-47
187	0x81	-127
188	0xd8	-40
189	0x9e	-98
190	0xe7	-25
191	0xe7	-25
192	0xea	-22
193	0x95	-107
194	0x19	25
195	0x8d	-115
196	0xc3	-61
197	0x1e	30
198	0x24	36
199	0x81	-127
200	0x7e	126
201	0xca	-54
202	0xdf	-33
203	0xa0	-96
204	0x7f	127
205	0xe6	-26
206	0x21	33
207	0xe0	-32
208	0x7f	127
209	0x35	53
210	0xa6	-90
211	0x24	36
212	0xaa	-86
213	0x08	8
214	0x70	112
215	0xef	-17
216	0xe6	-26
217	0x61	97
218	0xb9	-71
219	0x85	-123
220	0x14	20
221	0x7f	127
222	0x89	-119
223	0xe9	-23
224	0xc1	-63
225	0x0a	10
226	0xeb	-21
227	0x47	71
228	0x7f	127
229	0x27	39
230	0x97	-105
231	0xe1	-31
232	0xf5	-11
233	0x06	6
234	0xe0	-32
235	0xbc	-68
236	0xeb	-21
237	0x81	-127
238	0xdf	-33
239	0xf3	-13
240	0x38	56
241	0x81	-127
242	0xe9	-23
243	0x08	8
244	0xde	-34
245	0xdd	-35
246	0xd2	-46
247	0x28	40
248	0xdc	-36
249	0x9f	-97
250	0x28	40
251	0x81	-127
252	0x1a	26
253	0x0e	14
254	0x21	33
255	0xef	-17

model/conv2d_14/Conv2D i1 [8, 1, 1, 48]
0	0x0f	15
1	0xb4	-76
2	0x2c	44
3	0x4d	77
4	0xf8	-8
5	0x30	48
6	0xbb	-69
7	0x0b	11
8	0x19	25
9	0xd0	-48
10	0x00	0
11	0x29	41
12	0xae	-82
13	0xb0	-80
14	0xb6	-74
15	0xf0	-16
16	0x02	2
17	0xf3	-13
18	0xe9	-23
19	0x19	25
20	0xdf	-33
21	0xfe	-2
22	0xed	-19
23	0xe3	-29
24	0xd1	-47
25	0x2a	42
26	0xf7	-9
27	0xee	-18
28	0x2d	45
29	0x2c	44
30	0x23	35
31	0x81	-127
32	0xe4	-28
33	0x22	34
34	0xc2	-62
35	0xfd	-3
36	0xf4	-12
37	0x0f	15
38	0x41	65
39	0xe9	-23
40	0xe8	-24
41	0x08	8
42	0x9e	-98
43	0xd0	-48
44	0x06	6
45	0x22	34
46	0xe4	-28
47	0x6c	108
48	0x22	34
49	0xab	-85
50	0xe0	-32
51	0xff	-1
52	0xec	-20
53	0x2c	44
54	0xbc	-68
55	0x86	-122
56	0xb1	-79
57	0xf6	-10
58	0xda	-38
59	0xf4	-12
60	0x19	25
61	0xcb	-53
62	0x38	56
63	0xec	-20
64	0x2b	43
65	0x93	-109
66	0x8f	-113
67	0x4e	78
68	0xc8	-56
69	0x13	19
70	0x49	73
71	0x12	18
72	0x28	40
73	0x52	82
74	0xd9	-39
75	0xf1	-15
76	0xaf	-81
77	0x0c	12
78	0x2e	46
79	0x54	84
80	0xc7	-57
81	0xb7	-73
82	0x23	35
83	0x4a	74
84	0x08	8
85	0x1c	28
86	0x2f	47
87	0x4b	75
88	0xbd	-67
89	0x09	9
90	0x08	8
91	0x3a	58
92	0xed	-19
93	0xd6	-42
94	0x18	24
95	0x7f	127
96	0x4f	79
97	0x22	34
98	0x47	71
99	0xfa	-6
100	0x22	34
101	0x96	-106
102	0xb9	-71
103	0x74	116
104	0x0d	13
105	0x5d	93
106	0xf1	-15
107	0x3e	62
108	0xd4	-44
109	0x1c	28
110	0x31	49
111	0x56	86
112	0x0c	12
113	0x20	32
114	0x07	7
115	0x14	20
116	0xec	-20
117	0x43	67
118	0x9f	-97
119	0x40	64
120	0xe7	-25
121	0xd7	-41
122	0x1d	29
123	0xb5	-75
124	0x22	34
125	0x19	25
126	0x0d	13
127	0xff	-1
128	0x19	25
129	0xd0	-48
130	0xcc	-52
131	0x0e	14
132	0xdd	-35
133	0x61	97
134	0x05	5
135	0xbd	-67
136	0x81	-127
137	0x0e	14
138	0x44	68
139	0xed	-19
140	0x12	18
141	0xff	-1
142	0x2b	43
143	0xf5	-11
144	0x3b	59
145	0xc0	-64
146	0x27	39
147	0x79	121
148	0xf3	-13
149	0xfe	-2
150	0x19	25
151	0xc8	-56
152	0x9c	-100
153	0x2d	45
154	0x30	48
155	0xe2	-30
156	0x4b	75
157	0xc1	-63
158	0x6a	106
159	0xe9	-23
160	0x3b	59
161	0x17	23
162	0xec	-20
163	0x07	7
164	0xc0	-64
165	0x2d	45
166	0xc6	-58
167	0xf4	-12
168	0x44	68
169	0x28	40
170	0x91	-111
171	0x10	16
172	0xd7	-41
173	0xf0	-16
174	0x9d	-99
175	0xab	-85
176	0x31	49
177	0x81	-127
178	0xf2	-14
179	0x5a	90
180	0xd9	-39
181	0xe1	-31
182	0x35	53
183	0x3d	61
184	0xe6	-26
185	0xdb	-37
186	0xdb	-37
187	0xf7	-9
188	0x28	40
189	0xf4	-12
190	0x72	114
191	0x37	55
192	0x03	3
193	0x03	3
194	0xed	-19
195	0xca	-54
196	0xd1	-47
197	0x53	83
198	0x73	115
199	0x68	104
200	0xe3	-29
201	0xe8	-24
202	0xf7	-9
203	0x36	54
204	0x19	25
205	0x10	16
206	0xf1	-15
207	0x27	39
208	0x12	18
209	0xe5	-27
210	0x32	50
211	0xed	-19
212	0x7e	126
213	0xf7	-9
214	0xd4	-44
215	0x34	52
216	0xf6	-10
217	0x2c	44
218	0x2b	43
219	0x0c	12
220	0xba	-70
221	0x00	0
222	0xf9	-7
223	0x2e	46
224	0xd7	-41
225	0x0c	12
226	0x15	21
227	0xe1	-31
228	0x81	-127
229	0xd1	-47
230	0x02	2
231	0xc9	-55
232	0xe5	-27
233	0xbc	-68
234	0x2e	46
235	0xdf	-33
236	0x9c	-100
237	0x38	56
238	0xca	-54
239	0x32	50
240	0x12	18
241	0xaf	-81
242	0x39	57
243	0x29	41
244	0x25	37
245	0xf7	-9
246	0xe6	-26
247	0x01	1
248	0xf1	-15
249	0xa0	-96
250	0x7f	127
251	0x01	1
252	0x19	25
253	0xf6	-10
254	0x5d	93
255	0x36	54

model/conv2d_15/Conv2D i1 [48, 1, 1, 8]
0	0x32	50
1	0x0d	13
2	0xe5	-27
3	0x03	3
4	0xaa	-86
5	0x7f	127
6	0x18	24
7	0x27	39
8	0xca	-54
9	0x31	49
10	0x3d	61
11	0x73	115
12	0x40	64
13	0xc5	-59
14	0x7f	127
15	0xfd	-3
16	0x4d	77
17	0xd5	-43
18	0xf9	-7
19	0x3d	61
20	0xab	-85
21	0x45	69
22	0xd1	-47
23	0x7f	127
24	0x46	70
25	0x3c	60
26	0xd4	-44
27	0xf5	-11
28	0xe1	-31
29	0xeb	-21
30	0x81	-127
31	0x27	39
32	0x6c	108
33	0x0b	11
34	0xf8	-8
35	0x7f	127
36	0x41	65
37	0x4e	78
38	0x08	8
39	0xe5	-27
40	0x38	56
41	0x8f	-113
42	0x34	52
43	0xf8	-8
44	0x8f	-113
45	0x81	-127
46	0xb8	-72
47	0x45	69
48	0xb5	-75
49	0xfb	-5
50	0xe2	-30
51	0x7c	124
52	0xcc	-52
53	0xc4	-60
54	0x7f	127
55	0xde	-34
56	0x9c	-100
57	0x3b	59
58	0x76	118
59	0x7f	127
60	0x2a	42
61	0xa7	-89
62	0x2e	46
63	0xea	-22
64	0xef	-17
65	0xfa	-6
66	0xd9	-39
67	0xe8	-24
68	0x5c	92
69	0xde	-34
70	0xeb	-21
71	0x7f	127
72	0x7f	127
73	0x19	25
74	0x35	53
75	0x5c	92
76	0xae	-82
77	0x96	-106
78	0xc7	-57
79	0x0e	14
80	0x10	16
81	0x2a	42
82	0x7f	127
83	0x00	0
84	0x2f	47
85	0x09	9
86	0x49	73
87	0xdf	-33
88	0xb0	-80
89	0x0c	12
90	0x44	68
91	0x15	21
92	0x0e	14
93	0x7f	127
94	0x53	83
95	0x12	18
96	0xd0	-48
97	0x32	50
98	0x16	22
99	0x48	72
100	0x81	-127
101	0x2b	43
102	0xcb	-53
103	0xee	-18
104	0x9e	-98
105	0xdd	-35
106	0x1f	31
107	0x0a	10
108	0x7f	127
109	0xfd	-3
110	0x2f	47
111	0xd3	-45
112	0x40	64
113	0x10	16
114	0x05	5
115	0x79	121
116	0x3b	59
117	0x7f	127
118	0xae	-82
119	0xd7	-41
120	0xdc	-36
121	0xb8	-72
122	0x91	-111
123	0x7f	127
124	0x07	7
125	0x33	51
126	0xb4	-76
127	0xf4	-12
128	0xda	-38
129	0x23	35
130	0x4a	74
131	0xd3	-45
132	0xe6	-26
133	0x81	-127
134	0x14	20
135	0xde	-34
136	0x46	70
137	0x12	18
138	0x24	36
139	0x81	-127
140	0x2f	47
141	0xe2	-30
142	0xeb	-21
143	0x89	-119
144	0x4a	74
145	0x03	3
146	0x39	57
147	0xab	-85
148	0x23	35
149	0x23	35
150	0xbc	-68
151	0x7f	127
152	0x0b	11
153	0xce	-50
154	0xd9	-39
155	0x81	-127
156	0x30	48
157	0x18	24
158	0x34	52
159	0xe1	-31
160	0xc2	-62
161	0x7e	126
162	0x32	50
163	0x98	-104
164	0xfb	-5
165	0x59	89
166	0x33	51
167	0x7f	127
168	0x41	65
169	0x81	-127
170	0x1d	29
171	0x0b	11
172	0xbb	-69
173	0xfa	-6
174	0xec	-20
175	0x22	34
176	0xf0	-16
177	0xef	-17
178	0x52	82
179	0xfc	-4
180	0x7f	127
181	0x09	9
182	0x0a	10
183	0xb3	-77
184	0x7f	127
185	0x79	121
186	0x38	56
187	0x2c	44
188	0xc5	-59
189	0xe5	-27
190	0xc9	-55
191	0x4f	79
192	0xdb	-37
193	0x79	121
194	0x1e	30
195	0x5e	94
196	0x81	-127
197	0x67	103
198	0x98	-104
199	0xa6	-90
200	0xf9	-7
201	0xee	-18
202	0xc0	-64
203	0x5f	95
204	0x12	18
205	0xc7	-57
206	0x0a	10
207	0x81	-127
208	0x3c	60
209	0xf3	-13
210	0x24	36
211	0xbc	-68
212	0x7f	127
213	0xe8	-24
214	0xc6	-58
215	0x97	-105
216	0x46	70
217	0xd1	-47
218	0x00	0
219	0x7f	127
220	0xc6	-58
221	0xaf	-81
222	0x07	7
223	0xd8	-40
224	0x02	2
225	0x0a	10
226	0xe4	-28
227	0xa1	-95
228	0xdd	-35
229	0x4c	76
230	0x81	-127
231	0xd9	-39
232	0x40	64
233	0x11	17
234	0xf6	-10
235	0x0a	10
236	0xfa	-6
237	0x2c	44
238	0x7f	127
239	0xb1	-79
240	0x53	83
241	0x33	51
242	0xef	-17
243	0x75	117
244	0x67	103
245	0x7f	127
246	0xb9	-71
247	0xe0	-32
248	0x7f	127
249	0xbf	-65
250	0xc9	-55
251	0xdc	-36
252	0x55	85
253	0xda	-38
254	0x0a	10
255	0xef	-17

model/conv2d_16/Conv2D i1 [8, 1, 1, 48]
0	0x51	81
1	0xcd	-51
2	0x08	8
3	0x08	8
4	0x0e	14
5	0x40	64
6	0x1b	27
7	0xea	-22
8	0x51	81
9	0xd0	-48
10	0xca	-54
11	0xbb	-69
12	0x7d	125
13	0xc1	-63
14	0x0f	15
15	0xed	-19
16	0x25	37
17	0xc9	-55
18	0xfe	-2
19	0x9e	-98
20	0xf2	-14
21	0x2b	43
22	0x03	3
23	0xda	-38
24	0x5c	92
25	0x1c	28
26	0x07	7
27	0x1e	30
28	0xfd	-3
29	0x7f	127
30	0x13	19
31	0xe1	-31
32	0xce	-50
33	0x18	24
34	0x07	7
35	0x1c	28
36	0xc7	-57
37	0x6c	108
38	0xc5	-59
39	0x3d	61
40	0x2a	42
41	0x00	0
42	0x29	41
43	0x4a	74
44	0xcf	-49
45	0x56	86
46	0x1e	30
47	0xbc	-68
48	0xd7	-41
49	0x33	51
50	0x3b	59
51	0x03	3
52	0x10	16
53	0xc0	-64
54	0x41	65
55	0xed	-19
56	0x02	2
57	0x08	8
58	0x86	-122
59	0x0a	10
60	0x25	37
61	0xf5	-11
62	0xf9	-7
63	0xfd	-3
64	0xbe	-66
65	0xfc	-4
66	0x00	0
67	0x1d	29
68	0x67	103
69	0xdf	-33
70	0x18	24
71	0xed	-19
72	0x11	17
73	0x0a	10
74	0x93	-109
75	0x1e	30
76	0xd9	-39
77	0x02	2
78	0xba	-70
79	0x1f	31
80	0x7f	127
81	0xf4	-12
82	0x34	52
83	0x9b	-101
84	0x27	39
85	0xd3	-45
86	0xc0	-64
87	0xcc	-52
88	0xd8	-40
89	0xfc	-4
90	0xf7	-9
91	0xe0	-32
92	0xf5	-11
93	0x07	7
94	0x20	32
95	0x9d	-99
96	0x0a	10
97	0x06	6
98	0x00	0
99	0x34	52
100	0x09	9
101	0xe9	-23
102	0x31	49
103	0xdc	-36
104	0xf5	-11
105	0x09	9
106	0xdc	-36
107	0x32	50
108	0xd8	-40
109	0xd5	-43
110	0x22	34
111	0xaf	-81
112	0x05	5
113	0xe0	-32
114	0xfe	-2
115	0x20	32
116	0xf1	-15
117	0xff	-1
118	0xd6	-42
119	0x15	21
120	0xfb	-5
121	0x22	34
122	0x96	-106
123	0xdd	-35
124	0x03	3
125	0x14	20
126	0xf2	-14
127	0xe6	-26
128	0xc3	-61
129	0x7f	127
130	0xfe	-2
131	0x02	2
132	0x69	105
133	0xdc	-36
134	0x37	55
135	0x4a	74
136	0x18	24
137	0xe7	-25
138	0xb9	-71
139	0x10	16
140	0x13	19
141	0xa4	-92
142	0x5b	91
143	0x30	48
144	0xc3	-61
145	0x2a	42
146	0x4d	77
147	0x78	120
148	0x5d	93
149	0xdb	-37
150	0xe3	-29
151	0x81	-127
152	0x18	24
153	0x18	24
154	0xdb	-37
155	0x16	22
156	0xfb	-5
157	0x28	40
158	0x3d	61
159	0x26	38
160	0xe9	-23
161	0x00	0
162	0x5c	92
163	0x54	84
164	0xd0	-48
165	0x11	17
166	0x09	9
167	0x0b	11
168	0xdb	-37
169	0xa1	-95
170	0x97	-105
171	0xac	-84
172	0x2d	45
173	0xf5	-11
174	0xf0	-16
175	0x10	16
176	0xc3	-61
177	0xd2	-46
178	0x7b	123
179	0x97	-105
180	0xea	-22
181	0xe0	-32
182	0x2e	46
183	0x49	73
184	0x9d	-99
185	0xbb	-69
186	0xe9	-23
187	0xb5	-75
188	0x27	39
189	0xc2	-62
190	0x49	73
191	0x17	23
192	0x17	23
193	0x06	6
194	0xf7	-9
195	0x1d	29
196	0x23	35
197	0x1c	28
198	0xb9	-71
199	0xf3	-13
200	0x52	82
201	0x08	8
202	0xda	-38
203	0x06	6
204	0x15	21
205	0xc5	-59
206	0xe8	-24
207	0x3c	60
208	0xc8	-56
209	0xb7	-73
210	0x1e	30
211	0x05	5
212	0x4d	77
213	0xb2	-78
214	0x94	-108
215	0xde	-34
216	0xf8	-8
217	0x2d	45
218	0xf4	-12
219	0x46	70
220	0x9e	-98
221	0xdd	-35
222	0x57	87
223	0x7a	122
224	0x21	33
225	0x19	25
226	0xf9	-7
227	0x7f	127
228	0x21	33
229	0x04	4
230	0xfe	-2
231	0xe8	-24
232	0x0b	11
233	0xe0	-32
234	0xdc	-36
235	0x44	68
236	0xd1	-47
237	0x67	103
238	0x05	5
239	0x16	22
240	0x4e	78
241	0xdd	-35
242	0xcd	-51
243	0x16	22
244	0x49	73
245	0xf6	-10
246	0xdd	-35
247	0x08	8
248	0xe1	-31
249	0x97	-105
250	0x16	22
251	0x5b	91
252	0xe1	-31
253	0xe7	-25
254	0x5d	93
255	0x67	103

model/conv2d_17/Conv2D i1 [48, 1, 1, 8]
0	0x7f	127
1	0xa1	-95
2	0x96	-106
3	0xc0	-64
4	0x42	66
5	0x10	16
6	0x50	80
7	0x3a	58
8	0xf9	-7
9	0x1f	31
10	0x7f	127
11	0x19	25
12	0xfd	-3
13	0x0b	11
14	0x27	39
15	0xc0	-64
16	0x44	68
17	0x81	-127
18	0xf0	-16
19	0x0e	14
20	0xc5	-59
21	0xfd	-3
22	0x30	48
23	0x15	21
24	0x30	48
25	0x0a	10
26	0x32	50
27	0xf3	-13
28	0xf3	-13
29	0x7f	127
30	0x35	53
31	0x02	2
32	0x46	70
33	0x16	22
34	0x11	17
35	0x7f	127
36	0x04	4
37	0x25	37
38	0xe8	-24
39	0xef	-17
40	0xe8	-24
41	0xde	-34
42	0x81	-127
43	0xe2	-30
44	0xb9	-71
45	0x04	4
46	0xeb	-21
47	0x4c	76
48	0xac	-84
49	0xfb	-5
50	0xd6	-42
51	0x7f	127
52	0xd2	-46
53	0x8e	-114
54	0x19	25
55	0xe3	-29
56	0xbb	-69
57	0xd2	-46
58	0xcc	-52
59	0x7f	127
60	0x0e	14
61	0xe2	-30
62	0x33	51
63	0xce	-50
64	0x3b	59
65	0x0c	12
66	0x46	70
67	0x97	-105
68	0xc3	-61
69	0x81	-127
70	0xaa	-86
71	0x52	82
72	0x81	-127
73	0x6a	106
74	0xee	-18
75	0x01	1
76	0x7c	124
77	0x24	36
78	0xc3	-61
79	0x60	96
80	0x09	9
81	0x93	-109
82	0xff	-1
83	0x7f	127
84	0xfb	-5
85	0xea	-22
86	0x0b	11
87	0xe7	-25
88	0xe8	-24
89	0x7f	127
90	0x12	18
91	0x7a	122
92	0x00	0
93	0xeb	-21
94	0xe8	-24
95	0x51	81
96	0x00	0
97	0x7f	127
98	0x00	0
99	0x21	33
100	0xe6	-26
101	0x18	24
102	0x05	5
103	0x24	36
104	0x2a	42
105	0x8d	-115
106	0x9e	-98
107	0x35	53
108	0x81	-127
109	0xfe	-2
110	0xeb	-21
111	0x6e	110
112	0xd2	-46
113	0x81	-127
114	0xe2	-30
115	0xd1	-47
116	0xf9	-7
117	0x2b	43
118	0x1e	30
119	0x5c	92
120	0x0f	15
121	0x7f	127
122	0xec	-20
123	0x6b	107
124	0x11	17
125	0xd4	-44
126	0xee	-18
127	0x49	73
128	0x81	-127
129	0xd9	-39
130	0x7b	123
131	0xa6	-90
132	0x56	86
133	0xe0	-32
134	0x44	68
135	0xf6	-10
136	0x3b	59
137	0xe8	-24
138	0xb1	-79
139	0x32	50
140	0x81	-127
141	0x00	0
142	0xfb	-5
143	0x15	21
144	0x15	21
145	0xe7	-25
146	0xc7	-57
147	0x6c	108
148	0xdc	-36
149	0x1e	30
150	0x16	22
151	0x7f	127
152	0xd5	-43
153	0xcc	-52
154	0xe3	-29
155	0x7f	127
156	0x19	25
157	0xf5	-11
158	0x16	22
159	0xcc	-52
160	0xff	-1
161	0xad	-83
162	0x0f	15
163	0x81	-127
164	0x0c	12
165	0x05	5
166	0x25	37
167	0xd4	-44
168	0x81	-127
169	0xb3	-77
170	0xa1	-95
171	0x4a	74
172	0x1c	28
173	0xf1	-15
174	0x59	89
175	0x92	-110
176	0x7f	127
177	0x95	-107
178	0x45	69
179	0x71	113
180	0x97	-105
181	0x00	0
182	0x26	38
183	0x9a	-102
184	0xe5	-27
185	0x1e	30
186	0xa4	-92
187	0x42	66
188	0x81	-127
189	0x3e	62
190	0xdb	-37
191	0xe8	-24
192	0x26	38
193	0xd4	-44
194	0xbd	-67
195	0x81	-127
196	0xba	-70
197	0xae	-82
198	0x4b	75
199	0x9b	-101
200	0x06	6
201	0x55	85
202	0x7f	127
203	0xd8	-40
204	0x42	66
205	0xca	-54
206	0x2b	43
207	0x9f	-97
208	0xe9	-23
209	0xcc	-52
210	0xb3	-77
211	0x48	72
212	0xfc	-4
213	0xfc	-4
214	0x31	49
215	0x81	-127
216	0xf5	-11
217	0x7f	127
218	0xdc	-36
219	0x49	73
220	0xdf	-33
221	0x88	-120
222	0x1c	28
223	0x24	36
224	0xeb	-21
225	0x12	18
226	0x58	88
227	0x7f	127
228	0xfe	-2
229	0xdc	-36
230	0xfa	-6
231	0x21	33
232	0x7d	125
233	0x7f	127
234	0x45	69
235	0xd2	-46
236	0xce	-50
237	0x1b	27
238	0xbb	-69
239	0x58	88
240	0x81	-127
241	0x3a	58
242	0xac	-84
243	0x66	102
244	0x03	3
245	0xa8	-88
246	0x56	86
247	0x2b	43
248	0x7f	127
249	0xc9	-55
250	0x14	20
251	0x59	89
252	0x9c	-100
253	0xeb	-21
254	0x07	7
255	0x90	-112

model/conv2d_18/Conv2D i1 [16, 1, 1, 48]
0	0xe9	-23
1	0x2b	43
2	0xfa	-6
3	0x6a	106
4	0x0c	12
5	0x27	39
6	0xe4	-28
7	0xe3	-29
8	0xf5	-11
9	0x4e	78
10	0xef	-17
11	0x0c	12
12	0xe0	-32
13	0x0c	12
14	0xee	-18
15	0xf2	-14
16	0xfa	-6
17	0xe3	-29
18	0xbd	-67
19	0x0f	15
20	0x07	7
21	0x81	-127
22	0x01	1
23	0x47	71
24	0x25	37
25	0xfc	-4
26	0xc0	-64
27	0xff	-1
28	0xee	-18
29	0xe4	-28
30	0x22	34
31	0x57	87
32	0xfa	-6
33	0xb2	-78
34	0x24	36
35	0x2a	42
36	0xb2	-78
37	0xeb	-21
38	0x14	20
39	0xfa	-6
40	0xe2	-30
41	0xce	-50
42	0xeb	-21
43	0xd3	-45
44	0xdc	-36
45	0x08	8
46	0x34	52
47	0xea	-22
48	0x18	24
49	0x20	32
50	0xeb	-21
51	0xd9	-39
52	0xf2	-14
53	0xdb	-37
54	0xfe	-2
55	0x19	25
56	0x34	52
57	0xf1	-15
58	0x14	20
59	0x1d	29
60	0xfa	-6
61	0x1c	28
62	0x11	17
63	0xb6	-74
64	0xee	-18
65	0x13	19
66	0xe4	-28
67	0xf8	-8
68	0xfa	-6
69	0xd3	-45
70	0x20	32
71	0xb0	-80
72	0xb8	-72
73	0x0e	14
74	0xfe	-2
75	0xed	-19
76	0xdc	-36
77	0x2b	43
78	0x5a	90
79	0x25	37
80	0xef	-17
81	0xdf	-33
82	0xcb	-53
83	0x3e	62
84	0x05	5
85	0xd0	-48
86	0xd6	-42
87	0x02	2
88	0x3a	58
89	0xc9	-55
90	0x31	49
91	0x4c	76
92	0xc5	-59
93	0xf0	-16
94	0x7f	127
95	0xe5	-27
96	0x0f	15
97	0x47	71
98	0xf8	-8
99	0xe4	-28
100	0x4f	79
101	0x9f	-97
102	0x45	69
103	0x07	7
104	0x23	35
105	0x06	6
106	0x33	51
107	0x4a	74
108	0xfa	-6
109	0x48	72
110	0xca	-54
111	0xe0	-32
112	0xf0	-16
113	0x3b	59
114	0xcb	-53
115	0x00	0
116	0xe7	-25
117	0x02	2
118	0xf5	-11
119	0x06	6
120	0x71	113
121	0x32	50
122	0x03	3
123	0xce	-50
124	0x49	73
125	0x30	48
126	0xf9	-7
127	0x18	24
128	0xe2	-30
129	0x51	81
130	0xbf	-65
131	0x07	7
132	0x0d	13
133	0x0b	11
134	0x08	8
135	0x28	40
136	0x1e	30
137	0xf6	-10
138	0x81	-127
139	0x0b	11
140	0x1a	26
141	0x0c	12
142	0x22	34
143	0x1f	31
144	0xd2	-46
145	0xf6	-10
146	0x1e	30
147	0xed	-19
148	0xfd	-3
149	0x0d	13
150	0x12	18
151	0x92	-110
152	0xf2	-14
153	0x0c	12
154	0x3f	63
155	0xf0	-16
156	0xfb	-5
157	0x0f	15
158	0xee	-18
159	0x01	1
160	0x02	2
161	0xe6	-26
162	0x36	54
163	0x23	35
164	0xfc	-4
165	0xcc	-52
166	0x11	17
167	0x1b	27
168	0xdd	-35
169	0x0c	12
170	0xb7	-73
171	0xde	-34
172	0xd3	-45
173	0xc2	-62
174	0x4c	76
175	0x04	4
176	0x2c	44
177	0x6d	109
178	0x02	2
179	0xb4	-76
180	0xf7	-9
181	0x8c	-116
182	0x3b	59
183	0xe4	-28
184	0x2a	42
185	0x00	0
186	0xcc	-52
187	0x5e	94
188	0x1e	30
189	0x7f	127
190	0x1c	28
191	0x0a	10
192	0x05	5
193	0xe8	-24
194	0x1a	26
195	0xf3	-13
196	0x9c	-100
197	0x12	18
198	0x25	37
199	0xfd	-3
200	0xfa	-6
201	0x05	5
202	0xb0	-80
203	0x38	56
204	0x17	23
205	0xdb	-37
206	0x16	22
207	0xe1	-31
208	0x0e	14
209	0xe8	-24
210	0x15	21
211	0xff	-1
212	0xf4	-12
213	0xe3	-29
214	0xff	-1
215	0xd5	-43
216	0x1f	31
217	0xe7	-25
218	0x10	16
219	0xca	-54
220	0xb7	-73
221	0xeb	-21
222	0x14	20
223	0x36	54
224	0x28	40
225	0xf6	-10
226	0xc7	-57
227	0xcf	-49
228	0x2e	46
229	0xee	-18
230	0xe0	-32
231	0x06	6
232	0x70	112
233	0x35	53
234	0x81	-127
235	0xc9	-55
236	0xb4	-76
237	0xf2	-14
238	0xdb	-37
239	0x06	6
240	0x4a	74
241	0x3a	58
242	0xe7	-25
243	0xb2	-78
244	0x24	36
245	0x30	48
246	0x9d	-99
247	0xc7	-57
248	0xe5	-27
249	0xe2	-30
250	0xf6	-10
251	0xf6	-10
252	0xa7	-89
253	0x2e	46
254	0x62	98
255	0x03	3

model/conv2d_19/Conv2D i1 [96, 1, 1, 16]
0	0x39	57
1	0xef	-17
2	0x47	71
3	0x86	-122
4	0x7a	122
5	0x7d	125
6	0xce	-50
7	0xec	-20
8	0xfd	-3
9	0xbd	-67
10	0xa1	-95
11	0x43	67
12	0x37	55
13	0x7f	127
14	0x76	118
15	0x72	114
16	0xc1	-63
17	0xd4	-44
18	0x41	65
19	0xb1	-79
20	0xd1	-47
21	0x98	-104
22	0xd6	-42
23	0x0c	12
24	0x0f	15
25	0x16	22
26	0x18	24
27	0x7f	127
28	0xd3	-45
29	0x4e	78
30	0xaa	-86
31	0x46	70
32	0xb6	-74
33	0x17	23
34	0x11	17
35	0xd9	-39
36	0xfb	-5
37	0x07	7
38	0xe5	-27
39	0x26	38
40	0xda	-38
41	0x41	65
42	0xd5	-43
43	0xf4	-12
44	0x24	36
45	0x57	87
46	0xc7	-57
47	0x7f	127
48	0xef	-17
49	0xbc	-68
50	0x7f	127
51	0xad	-83
52	0x4e	78
53	0xf2	-14
54	0xf1	-15
55	0x5b	91
56	0x1c	28
57	0x4b	75
58	0x9e	-98
59	0xf9	-7
60	0xb9	-71
61	0x46	70
62	0x9e	-98
63	0xf0	-16
64	0xbe	-66
65	0x21	33
66	0xbe	-66
67	0x81	-127
68	0xe1	-31
69	0x20	32
70	0xaf	-81
71	0x95	-107
72	0xeb	-21
73	0x09	9
74	0x10	16
75	0x8e	-114
76	0xd6	-42
77	0xaa	-86
78	0xe8	-24
79	0x3e	62
80	0xf1	-15
81	0x7f	127
82	0xe9	-23
83	0xd9	-39
84	0x14	20
85	0x34	52
86	0xfc	-4
87	0xe4	-28
88	0x22	34
89	0x3f	63
90	0xc2	-62
91	0x26	38
92	0x17	23
93	0xf4	-12
94	0xae	-82
95	0xcb	-53
96	0xda	-38
97	0xb2	-78
98	0xb8	-72
99	0x1a	26
100	0xb7	-73
101	0xf4	-12
102	0xfb	-5
103	0x81	-127
104	0xfc	-4
105	0xf4	-12
106	0x75	117
107	0xc0	-64
108	0x01	1
109	0xbf	-65
110	0x0a	10
111	0xad	-83
112	0xbd	-67
113	0xf3	-13
114	0x84	-124
115	0x48	72
116	0x63	99
117	0x30	48
118	0x54	84
119	0xda	-38
120	0x30	48
121	0x1c	28
122	0x04	4
123	0x5b	91
124	0xcc	-52
125	0x3d	61
126	0x73	115
127	0x81	-127
128	0x37	55
129	0x2f	47
130	0xd0	-48
131	0x06	6
132	0xef	-17
133	0x7f	127
134	0x21	33
135	0x1d	29
136	0xec	-20
137	0xf7	-9
138	0xea	-22
139	0xb6	-74
140	0x44	68
141	0xa6	-90
142	0x12	18
143	0x9c	-100
144	0x14	20
145	0x21	33
146	0xb8	-72
147	0x08	8
148	0xe0	-32
149	0x47	71
150	0xcf	-49
151	0x83	-125
152	0xf4	-12
153	0x2a	42
154	0x29	41
155	0x4e	78
156	0xdb	-37
157	0xf6	-10
158	0x27	39
159	0x81	-127
160	0xf6	-10
161	0x94	-108
162	0xbf	-65
163	0x9a	-102
164	0xb9	-71
165	0xf7	-9
166	0x50	80
167	0x3a	58
168	0x14	20
169	0xf7	-9
170	0xb3	-77
171	0xf4	-12
172	0xe3	-29
173	0x7f	127
174	0xf9	-7
175	0xec	-20
176	0xdd	-35
177	0xed	-19
178	0x26	38
179	0xdf	-33
180	0xcb	-53
181	0x7f	127
182	0xcb	-53
183	0x14	20
184	0x2f	47
185	0xae	-82
186	0x19	25
187	0x17	23
188	0x16	22
189	0x46	70
190	0x09	9
191	0x1e	30
192	0x2d	45
193	0xdf	-33
194	0x12	18
195	0xdf	-33
196	0x7f	127
197	0x96	-106
198	0xef	-17
199	0x3d	61
200	0xfe	-2
201	0xfd	-3
202	0x2d	45
203	0x0c	12
204	0xe3	-29
205	0xb2	-78
206	0xc7	-57
207	0x01	1
208	0x81	-127
209	0xdf	-33
210	0x23	35
211	0xab	-85
212	0x38	56
213	0x10	16
214	0xf7	-9
215	0xc2	-62
216	0xd8	-40
217	0xdf	-33
218	0xdf	-33
219	0x89	-119
220	0x11	17
221	0x1b	27
222	0xc2	-62
223	0x42	66
224	0x7f	127
225	0x1c	28
226	0xa3	-93
227	0x76	118
228	0xce	-50
229	0x51	81
230	0xd3	-45
231	0xee	-18
232	0xae	-82
233	0x27	39
234	0xf5	-11
235	0xc0	-64
236	0xcc	-52
237	0xca	-54
238	0x57	87
239	0x8a	-118
240	0xeb	-21
241	0xe7	-25
242	0x35	53
243	0xc8	-56
244	0xd2	-46
245	0xbe	-66
246	0xed	-19
247	0x17	23
248	0x1a	26
249	0xfe	-2
250	0xa8	-88
251	0x13	19
252	0x13	19
253	0xff	-1
254	0x44	68
255	0x81	-127

model/conv2d_20/Conv2D i1 [16, 1, 1, 96]
0	0xac	-84
1	0x68	104
2	0xda	-38
3	0x72	114
4	0xb6	-74
5	0xc5	-59
6	0x0e	14
7	0xbb	-69
8	0x0f	15
9	0xe3	-29
10	0xe5	-27
11	0x29	41
12	0xd6	-42
13	0xcd	-51
14	0x28	40
15	0x1c	28
16	0x1c	28
17	0xbb	-69
18	0xdd	-35
19	0xb9	-71
20	0xf8	-8
21	0x5d	93
22	0x2b	43
23	0xd0	-48
24	0xa8	-88
25	0x1b	27
26	0x04	4
27	0x00	0
28	0xd1	-47
29	0xf1	-15
30	0x0a	10
31	0xbe	-66
32	0xea	-22
33	0x12	18
34	0xf1	-15
35	0x06	6
36	0x02	2
37	0xf1	-15
38	0xc2	-62
39	0x44	68
40	0xd6	-42
41	0xe5	-27
42	0xb3	-77
43	0x34	52
44	0xeb	-21
45	0xf6	-10
46	0xea	-22
47	0xe5	-27
48	0x1e	30
49	0xa8	-88
50	0x78	120
51	0x7d	125
52	0x8e	-114
53	0xd2	-46
54	0x02	2
55	0xb3	-77
56	0xc7	-57
57	0x10	16
58	0xe9	-23
59	0xe3	-29
60	0x12	18
61	0xd5	-43
62	0xf9	-7
63	0x6a	106
64	0x41	65
65	0xf8	-8
66	0x35	53
67	0x19	25
68	0x04	4
69	0x30	48
70	0xa9	-87
71	0xcf	-49
72	0x01	1
73	0xd4	-44
74	0x4b	75
75	0xde	-34
76	0x9c	-100
77	0x8b	-117
78	0x20	32
79	0xc4	-60
80	0xfe	-2
81	0x0d	13
82	0xf1	-15
83	0x9e	-98
84	0x0e	14
85	0x0e	14
86	0x4d	77
87	0x34	52
88	0xfd	-3
89	0x39	57
90	0x47	71
91	0x7f	127
92	0x3c	60
93	0x38	56
94	0x06	6
95	0x1b	27
96	0xf4	-12
97	0x40	64
98	0x20	32
99	0x4b	75
100	0x4d	77
101	0xe2	-30
102	0x08	8
103	0x38	56
104	0x36	54
105	0x57	87
106	0x20	32
107	0x62	98
108	0x4a	74
109	0xce	-50
110	0x2a	42
111	0xff	-1
112	0x6a	106
113	0x0e	14
114	0xd7	-41
115	0xf4	-12
116	0x5d	93
117	0x28	40
118	0x87	-121
119	0x34	52
120	0xcd	-51
121	0xe2	-30
122	0xcf	-49
123	0x00	0
124	0xe3	-29
125	0xd6	-42
126	0xad	-83
127	0x0e	14
128	0xb7	-73
129	0x04	4
130	0x36	54
131	0xa1	-95
132	0xfe	-2
133	0x0d	13
134	0x55	85
135	0xe5	-27
136	0xe3	-29
137	0x40	64
138	0xcf	-49
139	0xfb	-5
140	0xd5	-43
141	0x49	73
142	0x04	4
143	0x22	34
144	0x27	39
145	0xb7	-73
146	0xdd	-35
147	0x60	96
148	0x48	72
149	0x08	8
150	0x24	36
151	0xbd	-67
152	0x56	86
153	0xe9	-23
154	0xca	-54
155	0x02	2
156	0xab	-85
157	0x54	84
158	0xc7	-57
159	0x74	116
160	0xdd	-35
161	0x4d	77
162	0x14	20
163	0x4c	76
164	0x2f	47
165	0xf4	-12
166	0x19	25
167	0xe4	-28
168	0xa9	-87
169	0x60	96
170	0x81	-127
171	0x11	17
172	0xbc	-68
173	0x2c	44
174	0x1e	30
175	0xd0	-48
176	0x72	114
177	0xe6	-26
178	0x19	25
179	0x19	25
180	0x33	51
181	0xef	-17
182	0x05	5
183	0xb7	-73
184	0xf9	-7
185	0xa4	-92
186	0xeb	-21
187	0x6b	107
188	0xaf	-81
189	0x21	33
190	0x98	-104
191	0x87	-121
192	0xc9	-55
193	0x2c	44
194	0xe2	-30
195	0x3f	63
196	0x57	87
197	0x22	34
198	0xd0	-48
199	0x3b	59
200	0xbd	-67
201	0x07	7
202	0xe5	-27
203	0x02	2
204	0xc9	-55
205	0x0c	12
206	0xaa	-86
207	0x42	66
208	0xd4	-44
209	0xdf	-33
210	0x7c	124
211	0x0a	10
212	0x03	3
213	0x3e	62
214	0xb6	-74
215	0xda	-38
216	0x04	4
217	0xb2	-78
218	0xe2	-30
219	0x02	2
220	0x1d	29
221	0x40	64
222	0x2a	42
223	0xf2	-14
224	0xcf	-49
225	0xc9	-55
226	0xa5	-91
227	0xe3	-29
228	0xc3	-61
229	0x29	41
230	0x04	4
231	0xc3	-61
232	0xf9	-7
233	0xdb	-37
234	0x31	49
235	0xe8	-24
236	0x01	1
237	0x16	22
238	0x81	-127
239	0x22	34
240	0xb7	-73
241	0xf3	-13
242	0x34	52
243	0x13	19
244	0x32	50
245	0x13	19
246	0xf0	-16
247	0xd2	-46
248	0x05	5
249	0x2c	44
250	0xfa	-6
251	0xfa	-6
252	0x38	56
253	0xe8	-24
254	0x0b	11
255	0xea	-22
